/home/cvlab/anaconda3/envs/py37/bin/python3.7 /home/cvlab/repo/MIM-pytorch/run2.py
MIM(
  (st_lstm_layer): ModuleList(
    (0): SpatioTemporalLSTMCell(
      (t_cc): Conv2d(64, 256, kernel_size=(5, 5), stride=(1, 1), padding=(2, 2))
      (s_cc): Conv2d(64, 256, kernel_size=(5, 5), stride=(1, 1), padding=(2, 2))
      (x_cc): Conv2d(1, 256, kernel_size=(5, 5), stride=(1, 1), padding=(2, 2))
      (c_cc): Conv2d(128, 64, kernel_size=(1, 1), stride=(1, 1))
      (bn_t_cc): BatchNorm2d(256, eps=1e-05, momentum=0.1, affine=True, track_running_stats=True)
      (bn_s_cc): BatchNorm2d(256, eps=1e-05, momentum=0.1, affine=True, track_running_stats=True)
      (bn_x_cc): BatchNorm2d(256, eps=1e-05, momentum=0.1, affine=True, track_running_stats=True)
    )
    (1): MIMBlock(
      (mim_s_h_t): Conv2d(64, 256, kernel_size=(5, 5), stride=(1, 1), padding=(2, 2))
      (mim_s_x): Conv2d(64, 256, kernel_size=(5, 5), stride=(1, 1), padding=(2, 2))
      (bn_h_concat): BatchNorm2d(256, eps=1e-05, momentum=0.1, affine=True, track_running_stats=True)
      (bn_x_concat): BatchNorm2d(256, eps=1e-05, momentum=0.1, affine=True, track_running_stats=True)
      (t_cc): Conv2d(64, 192, kernel_size=(5, 5), stride=(1, 1), padding=(2, 2))
      (s_cc): Conv2d(64, 256, kernel_size=(5, 5), stride=(1, 1), padding=(2, 2))
      (x_cc): Conv2d(64, 256, kernel_size=(5, 5), stride=(1, 1), padding=(2, 2))
      (c_cc): Conv2d(128, 64, kernel_size=(1, 1), stride=(1, 1))
      (bn_t_cc): BatchNorm2d(192, eps=1e-05, momentum=0.1, affine=True, track_running_stats=True)
      (bn_s_cc): BatchNorm2d(256, eps=1e-05, momentum=0.1, affine=True, track_running_stats=True)
      (bn_x_cc): BatchNorm2d(256, eps=1e-05, momentum=0.1, affine=True, track_running_stats=True)
    )
    (2): MIMBlock(
      (mim_s_h_t): Conv2d(64, 256, kernel_size=(5, 5), stride=(1, 1), padding=(2, 2))
      (mim_s_x): Conv2d(64, 256, kernel_size=(5, 5), stride=(1, 1), padding=(2, 2))
      (bn_h_concat): BatchNorm2d(256, eps=1e-05, momentum=0.1, affine=True, track_running_stats=True)
      (bn_x_concat): BatchNorm2d(256, eps=1e-05, momentum=0.1, affine=True, track_running_stats=True)
      (t_cc): Conv2d(64, 192, kernel_size=(5, 5), stride=(1, 1), padding=(2, 2))
      (s_cc): Conv2d(64, 256, kernel_size=(5, 5), stride=(1, 1), padding=(2, 2))
      (x_cc): Conv2d(64, 256, kernel_size=(5, 5), stride=(1, 1), padding=(2, 2))
      (c_cc): Conv2d(128, 64, kernel_size=(1, 1), stride=(1, 1))
      (bn_t_cc): BatchNorm2d(192, eps=1e-05, momentum=0.1, affine=True, track_running_stats=True)
      (bn_s_cc): BatchNorm2d(256, eps=1e-05, momentum=0.1, affine=True, track_running_stats=True)
      (bn_x_cc): BatchNorm2d(256, eps=1e-05, momentum=0.1, affine=True, track_running_stats=True)
    )
    (3): MIMBlock(
      (mim_s_h_t): Conv2d(64, 256, kernel_size=(5, 5), stride=(1, 1), padding=(2, 2))
      (mim_s_x): Conv2d(64, 256, kernel_size=(5, 5), stride=(1, 1), padding=(2, 2))
      (bn_h_concat): BatchNorm2d(256, eps=1e-05, momentum=0.1, affine=True, track_running_stats=True)
      (bn_x_concat): BatchNorm2d(256, eps=1e-05, momentum=0.1, affine=True, track_running_stats=True)
      (t_cc): Conv2d(64, 192, kernel_size=(5, 5), stride=(1, 1), padding=(2, 2))
      (s_cc): Conv2d(64, 256, kernel_size=(5, 5), stride=(1, 1), padding=(2, 2))
      (x_cc): Conv2d(64, 256, kernel_size=(5, 5), stride=(1, 1), padding=(2, 2))
      (c_cc): Conv2d(128, 64, kernel_size=(1, 1), stride=(1, 1))
      (bn_t_cc): BatchNorm2d(192, eps=1e-05, momentum=0.1, affine=True, track_running_stats=True)
      (bn_s_cc): BatchNorm2d(256, eps=1e-05, momentum=0.1, affine=True, track_running_stats=True)
      (bn_x_cc): BatchNorm2d(256, eps=1e-05, momentum=0.1, affine=True, track_running_stats=True)
    )
  )
  (st_lstm_layer_diff): ModuleList(
    (0): MIMN(
      (h_t): Conv2d(64, 256, kernel_size=(5, 5), stride=(1, 1), padding=(2, 2))
      (x): Conv2d(64, 256, kernel_size=(5, 5), stride=(1, 1), padding=(2, 2))
      (bn_h_concat): BatchNorm2d(256, eps=1e-05, momentum=0.1, affine=True, track_running_stats=True)
      (bn_x_concat): BatchNorm2d(256, eps=1e-05, momentum=0.1, affine=True, track_running_stats=True)
    )
    (1): MIMN(
      (h_t): Conv2d(64, 256, kernel_size=(5, 5), stride=(1, 1), padding=(2, 2))
      (x): Conv2d(64, 256, kernel_size=(5, 5), stride=(1, 1), padding=(2, 2))
      (bn_h_concat): BatchNorm2d(256, eps=1e-05, momentum=0.1, affine=True, track_running_stats=True)
      (bn_x_concat): BatchNorm2d(256, eps=1e-05, momentum=0.1, affine=True, track_running_stats=True)
    )
    (2): MIMN(
      (h_t): Conv2d(64, 256, kernel_size=(5, 5), stride=(1, 1), padding=(2, 2))
      (x): Conv2d(64, 256, kernel_size=(5, 5), stride=(1, 1), padding=(2, 2))
      (bn_h_concat): BatchNorm2d(256, eps=1e-05, momentum=0.1, affine=True, track_running_stats=True)
      (bn_x_concat): BatchNorm2d(256, eps=1e-05, momentum=0.1, affine=True, track_running_stats=True)
    )
  )
  (x_gen): Conv2d(64, 1, kernel_size=(1, 1), stride=(1, 1))
)
The model is loaded!

clips
(2, 2000, 2)
dims
(1, 3)
input_raw_data
(40000, 1, 64, 64)
clips
(2, 10000, 2)
dims
(1, 3)
input_raw_data
(200000, 1, 64, 64)
2020-10-12 14:24:56 itr: 10
training loss: 0.1055968701839447
2020-10-12 14:25:27 itr: 20
training loss: 0.11191080510616302
2020-10-12 14:25:58 itr: 30
training loss: 0.08963902294635773
2020-10-12 14:26:29 itr: 40
…
