/home/cvlab/anaconda3/envs/py37/bin/python3.7 /home/cvlab/repo/MIM-pytorch/run2.py
MIM(
  (st_lstm_layer): ModuleList(
    (0): SpatioTemporalLSTMCell(
      (t_cc): Conv2d(64, 256, kernel_size=(5, 5), stride=(1, 1), padding=(2, 2))
      (s_cc): Conv2d(64, 256, kernel_size=(5, 5), stride=(1, 1), padding=(2, 2))
      (x_cc): Conv2d(3, 256, kernel_size=(5, 5), stride=(1, 1), padding=(2, 2))
      (c_cc): Conv2d(128, 64, kernel_size=(1, 1), stride=(1, 1))
      (bn_t_cc): BatchNorm2d(256, eps=1e-05, momentum=0.1, affine=True, track_running_stats=True)
      (bn_s_cc): BatchNorm2d(256, eps=1e-05, momentum=0.1, affine=True, track_running_stats=True)
      (bn_x_cc): BatchNorm2d(256, eps=1e-05, momentum=0.1, affine=True, track_running_stats=True)
    )
    (1): MIMBlock(
      (mim_s_h_t): Conv2d(64, 256, kernel_size=(5, 5), stride=(1, 1), padding=(2, 2))
      (mim_s_x): Conv2d(64, 256, kernel_size=(5, 5), stride=(1, 1), padding=(2, 2))
      (bn_h_concat): BatchNorm2d(256, eps=1e-05, momentum=0.1, affine=True, track_running_stats=True)
      (bn_x_concat): BatchNorm2d(256, eps=1e-05, momentum=0.1, affine=True, track_running_stats=True)
      (t_cc): Conv2d(64, 192, kernel_size=(5, 5), stride=(1, 1), padding=(2, 2))
      (s_cc): Conv2d(64, 256, kernel_size=(5, 5), stride=(1, 1), padding=(2, 2))
      (x_cc): Conv2d(64, 256, kernel_size=(5, 5), stride=(1, 1), padding=(2, 2))
      (c_cc): Conv2d(128, 64, kernel_size=(1, 1), stride=(1, 1))
      (bn_t_cc): BatchNorm2d(192, eps=1e-05, momentum=0.1, affine=True, track_running_stats=True)
      (bn_s_cc): BatchNorm2d(256, eps=1e-05, momentum=0.1, affine=True, track_running_stats=True)
      (bn_x_cc): BatchNorm2d(256, eps=1e-05, momentum=0.1, affine=True, track_running_stats=True)
    )
    (2): MIMBlock(
      (mim_s_h_t): Conv2d(64, 256, kernel_size=(5, 5), stride=(1, 1), padding=(2, 2))
      (mim_s_x): Conv2d(64, 256, kernel_size=(5, 5), stride=(1, 1), padding=(2, 2))
      (bn_h_concat): BatchNorm2d(256, eps=1e-05, momentum=0.1, affine=True, track_running_stats=True)
      (bn_x_concat): BatchNorm2d(256, eps=1e-05, momentum=0.1, affine=True, track_running_stats=True)
      (t_cc): Conv2d(64, 192, kernel_size=(5, 5), stride=(1, 1), padding=(2, 2))
      (s_cc): Conv2d(64, 256, kernel_size=(5, 5), stride=(1, 1), padding=(2, 2))
      (x_cc): Conv2d(64, 256, kernel_size=(5, 5), stride=(1, 1), padding=(2, 2))
      (c_cc): Conv2d(128, 64, kernel_size=(1, 1), stride=(1, 1))
      (bn_t_cc): BatchNorm2d(192, eps=1e-05, momentum=0.1, affine=True, track_running_stats=True)
      (bn_s_cc): BatchNorm2d(256, eps=1e-05, momentum=0.1, affine=True, track_running_stats=True)
      (bn_x_cc): BatchNorm2d(256, eps=1e-05, momentum=0.1, affine=True, track_running_stats=True)
    )
    (3): MIMBlock(
      (mim_s_h_t): Conv2d(64, 256, kernel_size=(5, 5), stride=(1, 1), padding=(2, 2))
      (mim_s_x): Conv2d(64, 256, kernel_size=(5, 5), stride=(1, 1), padding=(2, 2))
      (bn_h_concat): BatchNorm2d(256, eps=1e-05, momentum=0.1, affine=True, track_running_stats=True)
      (bn_x_concat): BatchNorm2d(256, eps=1e-05, momentum=0.1, affine=True, track_running_stats=True)
      (t_cc): Conv2d(64, 192, kernel_size=(5, 5), stride=(1, 1), padding=(2, 2))
      (s_cc): Conv2d(64, 256, kernel_size=(5, 5), stride=(1, 1), padding=(2, 2))
      (x_cc): Conv2d(64, 256, kernel_size=(5, 5), stride=(1, 1), padding=(2, 2))
      (c_cc): Conv2d(128, 64, kernel_size=(1, 1), stride=(1, 1))
      (bn_t_cc): BatchNorm2d(192, eps=1e-05, momentum=0.1, affine=True, track_running_stats=True)
      (bn_s_cc): BatchNorm2d(256, eps=1e-05, momentum=0.1, affine=True, track_running_stats=True)
      (bn_x_cc): BatchNorm2d(256, eps=1e-05, momentum=0.1, affine=True, track_running_stats=True)
    )
  )
  (st_lstm_layer_diff): ModuleList(
    (0): MIMN(
      (h_t): Conv2d(64, 256, kernel_size=(5, 5), stride=(1, 1), padding=(2, 2))
      (x): Conv2d(64, 256, kernel_size=(5, 5), stride=(1, 1), padding=(2, 2))
      (bn_h_concat): BatchNorm2d(256, eps=1e-05, momentum=0.1, affine=True, track_running_stats=True)
      (bn_x_concat): BatchNorm2d(256, eps=1e-05, momentum=0.1, affine=True, track_running_stats=True)
    )
    (1): MIMN(
      (h_t): Conv2d(64, 256, kernel_size=(5, 5), stride=(1, 1), padding=(2, 2))
      (x): Conv2d(64, 256, kernel_size=(5, 5), stride=(1, 1), padding=(2, 2))
      (bn_h_concat): BatchNorm2d(256, eps=1e-05, momentum=0.1, affine=True, track_running_stats=True)
      (bn_x_concat): BatchNorm2d(256, eps=1e-05, momentum=0.1, affine=True, track_running_stats=True)
    )
    (2): MIMN(
      (h_t): Conv2d(64, 256, kernel_size=(5, 5), stride=(1, 1), padding=(2, 2))
      (x): Conv2d(64, 256, kernel_size=(5, 5), stride=(1, 1), padding=(2, 2))
      (bn_h_concat): BatchNorm2d(256, eps=1e-05, momentum=0.1, affine=True, track_running_stats=True)
      (bn_x_concat): BatchNorm2d(256, eps=1e-05, momentum=0.1, affine=True, track_running_stats=True)
    )
  )
  (x_gen): Conv2d(64, 3, kernel_size=(1, 1), stride=(1, 1))
)
The model is loaded!

load data... data/human/
data size  422055
gen index
there are 1056 sequences
there are 5864 pictures
load data... data/human/
data size  422055
gen index
there are 2520 sequences
there are 26564 pictures
2020-10-19 19:46:41 itr: 10
training loss: 0.07868877053260803
2020-10-19 19:47:12 itr: 20
training loss: 0.028304247185587883
2020-10-19 19:47:43 itr: 30
…
